(honor) PS C:\Users\hengr\Programs\Projects\CPINN\Poisson> python .\train_1Dis_CGD.py
True
cuda
PINN_Poisson_2d(
  (activation): Tanh()
  (loss_function): MSELoss()
  (linears): ModuleList(
    (0): Linear(in_features=2, out_features=50, bias=True)
    (1-2): 2 x Linear(in_features=50, out_features=50, bias=True)
    (3): Linear(in_features=50, out_features=1, bias=True)
  )
)
Discriminator(
  (map): Sequential(
    (0): Linear(in_features=2, out_features=50, bias=True)
    (1): ReLU()
    (2): Linear(in_features=50, out_features=50, bias=True)
    (3): ReLU()
    (4): Linear(in_features=50, out_features=50, bias=True)
    (5): ReLU()
    (6): Linear(in_features=50, out_features=50, bias=True)
    (7): ReLU()
    (8): Linear(in_features=50, out_features=2, bias=True)
  )
)
PINN_Poisson_2d(
  (activation): Tanh()
  (loss_function): MSELoss()
  (linears): ModuleList(
    (0): Linear(in_features=2, out_features=50, bias=True)
    (1-2): 2 x Linear(in_features=50, out_features=50, bias=True)
    (3): Linear(in_features=50, out_features=1, bias=True)
  )
)
Discriminator(
  (map): Sequential(
    (0): Linear(in_features=2, out_features=50, bias=True)
    (1): ReLU()
    (2): Linear(in_features=50, out_features=50, bias=True)
    (3): ReLU()
    (4): Linear(in_features=50, out_features=50, bias=True)
    (5): ReLU()
    (6): Linear(in_features=50, out_features=50, bias=True)
    (7): ReLU()
    (8): Linear(in_features=50, out_features=2, bias=True)
  )
)
0/60001 PDE Loss: 1.04261, BC Loss: 0.53053,                   mse loss: 1.573135, nn loss: -0.009515
500/60001 PDE Loss: 1.65717, BC Loss: 0.43317,                   mse loss: 2.090342, nn loss: -0.022840
1000/60001 PDE Loss: 0.28337, BC Loss: 0.06133,                   mse loss: 0.344706, nn loss: -0.009817
1500/60001 PDE Loss: 0.06233, BC Loss: 0.03120,                   mse loss: 0.093533, nn loss: 0.005829
…
